data.pth (torch, 5482 bytes, 6 tensors)

l1.weight f4 [8, 55]
0.42046207 0.481301 0.26406363 -0.19487388 0.34328365 0.28416032 0.0060641263 -0.2203501
0.23672028 0.33751222 -0.29625523 0.25226173 0.17245586 -0.11519391 -0.0477127 -0.30904746
0.26457816 -0.14968383 0.16122462 0.07004747 -0.43578693 0.14920591 0.34248382 0.19326124
0.13087557 -0.16346869 -0.16097607 0.027109161 0.38751972 -0.22826639 0.35787797 -0.05143014
-0.15833223 0.16642642 0.29120043 0.030646479 -0.008157621 -0.23651578 0.20502909 0.3534232
0.32518217 0.012979271 -0.11522624 -0.21270202 0.26660186 0.1482232 0.4373461 0.6739899
0.24091993 0.2770688 -0.24303159 -0.116030194 -0.3772174 0.52490693 0.18162157 0.30965492
0.31088543 -0.43158132 -0.0017188732 0.5132292 0.20923427 -0.64905626 0.09461503 -0.3774395
-0.59374714 0.38287166 -0.25713322 0.37679407 -0.17621578 -0.115854725 -0.37938055 0.10979163
-0.11742701 0.6011594 -0.6152196 0.18237475 0.69495124 0.30929476 0.5645456 0.6799024
0.44902223 -0.13827793 0.29617652 0.37297547 0.12015402 0.40745884 -0.42988887 -0.31528723
0.30886132 -0.4301543 0.20356333 -0.110960215 0.057576977 -0.59302354 -0.26589534 -0.15051411
-0.47613415 -0.1647702 0.20773268 0.036786232 -0.22732309 0.08453374 0.44768184 0.24347487
0.5069697 0.0748777 -0.058985993 0.12745635 -0.18916415 0.32852793 0.29736274 0.007178876
-0.33409914 -0.31336233 0.181849 0.2479816 0.61162776 -0.2664354 -0.24030846 -0.5198966
-0.22607549 -0.1165758 0.3569877 -0.12735336 -0.4621482 -0.35848597 -0.22804186 -0.14162521
0.47992897 0.61723113 -0.23564573 0.46675837 0.36128834 0.55546874 0.5335821 0.45981303
0.030047154 0.25406823 -0.34376806 -0.2696478 -0.33448446 0.5339064 -0.24970128 0.23489435
-0.26755038 -0.2783867 -0.079286 -0.26694766 -0.7450086 -0.21607435 -0.07280423 0.42754447
-0.09898553 -0.17458361 -0.10286718 -0.31437784 -0.2659791 0.5298302 0.15750816 0.12921268
-0.30224127 0.052279264 -0.11020733 -0.08751767 0.25861806 0.48430568 0.6799892 0.13416126
-0.012978695 -0.19701636 -0.31493968 -0.24214427 -0.2141352 -0.12502122 0.32890263 -0.092376724
-0.08484917 -0.24689448 0.25829384 0.19077344 0.33337855 0.45903575 0.23698157 -0.114840716
-0.28343618 -0.13297169 -0.4007467 0.25773376 -0.38983184 -0.40078226 -0.21935497 0.202928
-0.029021647 0.5693087 0.023073137 0.3664918 -0.07722968 0.43222567 0.24550103 0.19669645
0.4835865 0.26732796 -0.11866761 0.23626298 0.015689736 0.18913728 -0.2014215 0.33501744
-0.16347657 0.41306034 0.37074095 0.6671828 0.7765555 0.19993219 -0.17479032 -0.12913829
0.18991739 -0.07985171 0.07035827 0.13358968 0.3655687 0.5776102 0.18689968 -0.10083152
-0.096640185 -0.16210188 -0.28117603 0.24006085 0.15935485 0.31847873 -0.26338884 0.2220626
-0.20215046 0.51537997 0.26222864 0.39395484 0.34486797 0.33020872 -0.20993549 -0.22517613
-0.021305365 -0.38494414 0.31013885 -0.40927407 -0.2854447 0.098874554 0.39216346 -0.13511495
0.6505235 -0.03431695 0.43098366 -0.16560408 0.3809361 0.14478672 0.12620491 0.31970873
00000000: ce46 d73e 166d f63e 5933 873e 058d 47be
00000010: e0c2 af3e 767d 913e 94b5 c63b 75a3 61be
00000020: cd66 723e 67ce ac3e c4ae 97be 7328 813e
00000030: 4598 303e c9ea ebbd 646e 43bd 783b 9ebe
00000040: ca76 873e b846 19be 1118 253e 0c75 8f3d
00000050: 771f dfbe 6fc9 183e 0a5a af3e 46e6 453e
00000060: 3f04 063e 5664 27be e9d6 24be 0814 de3c
00000070: fc68 c63e aabe 69be c83b b73e 69a8 52bd
00000080: d821 22be b06b 2a3e 3918 953e 530e fb3c
00000090: 8ba7 05bc 3131 72be 25f3 513e e3f3 b43e
000000a0: 477e a63e 02a7 543c bcfb ebbd 8fce 59be
000000b0: 0a80 883e d3c7 173e d4eb df3e 9a8a 2c3f
000000c0: b7b3 763e f6db 8d3e 46dd 78be 3da1 edbd
000000d0: a422 c1be 4d60 063f 01fb 393e 178b 9e3e
000000e0: 602c 9f3e 3af8 dcbe d04b e1ba fd62 033f
000000f0: 8241 563e 8d28 26bf 86c5 c13d c03f c1be
00000100: d0ff 17bf c107 c43e f7a6 83be 27eb c03e
00000110: e971 34be 3e45 edbd 2b3e c2be 6fda e03d
00000120: 927d f0bd 95e5 193f 087f 1dbf 72c0 3a3e
00000130: 53e8 313f e25b 9e3e 0f86 103f 150e 2e3f
00000140: 3ee6 e53e bb98 0dbe 73a4 973e a4f6 be3e
00000150: 5013 f63d 729e d03e 651a dcbe 546d a1be
00000160: 1223 9e3e 2f3d dcbe e872 503e 1c3f e3bd
00000170: d6d5 6b3d 64d0 17bf 6f23 88be 5f20 1abe
00000180: dbc7 f3be 85b9 28be e0b7 543e 29ad 163d
00000190: 62c7 68be 0720 ad3d 8e36 e53e 7a51 793e
000001a0: c4c8 013f 7b59 993d 4c9b 71bd eb83 023e
000001b0: 3fb4 41be d034 a83e ee3f 983e c73c eb3b
000001c0: 0b0f abbe 0771 a0be a036 3a3e e3ee 7d3e
000001d0: a393 1c3f 396a 88be 6c13 76be f217 05bf
000001e0: 5580 67be 4bbf eebd 18c7 b63e eb68 02be
000001f0: b09e ecbe 798b b7be ce83 69be 3306 11be
00000200: 40b9 f53e dc02 1e3f 1d4d 71be f4fa ee3e
00000210: c9fa b83e 3333 0e3f d698 083f 9d6c eb3e
00000220: 7325 f63c 3b15 823e 5e02 b0be 470f 8abe
00000230: 8c41 abbe 17ae 083f b1b1 7fbe 2588 703e
00000240: 5dfc 88be b488 8ebe b360 a2bd 5dad 88be
00000250: e2b8 3ebf 9842 5dbe 621a 95bd 1ce7 da3e
00000260: edb8 cabd 0cc6 32be 07ac d2bd 22f6 a0be
00000270: 6a2e 88be f4a2 073f d249 213e 5450 043e
00000280: 5ebf 9abe c822 563d 61b4 e1bd 773c b3bd
00000290: 9669 843e eaf6 f73e c613 2e3f 9261 093e
000002a0: 98a4 54bc a8be 49be c63f a1be abf4 77be
000002b0: 4246 5bbe 9005 00be ed65 a83e 0230 bdbd
000002c0: 67c5 adbd e8d1 7cbe 173f 843e 1d5a 433e
000002d0: 98b0 aa3e bc06 eb3e 4cab 723e 9c31 ebbd
000002e0: 8c1e 91be bb29 08be ac2e cdbe aef5 833e
000002f0: 0a98 c7be 5533 cdbe 979e 60be 5ccc 4f3e
00000300: cebe edbc 37be 113f e003 bd3c d0a4 bb3e
00000310: 982a 9ebd af4c dd3e 9f64 7b3e cb6a 493e
00000320: a698 f73e 36df 883e 0108 f3bd ecee 713e
00000330: c387 803c 34ad 413e 7041 4ebe 6887 ab3e
00000340: 6766 27be a57c d33e c2d1 bd3e 7ecc 2a3f
00000350: 57cc 463f 06bb 4c3e 3cfc 32be d43c 04be
00000360: b479 423e 4b89 a3bd ff17 903d bccb 083e
00000370: d22b bb3e 43de 133f a162 3f3e c280 cebd
00000380: 4aeb c5bd 09fe 25be 4ef6 8fbe 83d2 753e
00000390: eb2d 233e a50f a33e e7da 86be 6164 633e
000003a0: 8800 4fbe f1ef 033f d542 863e 73b4 c93e
000003b0: 8992 b03e 1e11 a93e 54f9 56be 9294 66be
000003c0: 9788 aebc 6617 c5be 85ca 9e3e 5f8c d1be
000003d0: cf25 92be be7e ca3d a6c9 c83e 935b 0abe
000003e0: b588 263f ee8f 0cbd e4a9 dc3e 1e94 29be
000003f0: 0e0a c33e f842 143e dc3b 013e ddb0 a33e

l1.bias f4 [8]
0.5978344 0.6490449 0.8746655 0.40076974 0.41207504 0.42725247 0.7262041 0.5643451
00000000: ad0b 193f ce27 263f 14ea 5f3f b131 cd3e
00000010: 80fb d23e d6c0 da3e 83e8 393f ec78 103f

l2.weight f4 [8, 8]
0.3133071 -0.46216926 -1.0962628 0.2863199 0.8688404 0.7665076 0.49107075 0.8096588
0.30845395 1.1244276 1.0893278 0.09052454 0.19542135 0.3119458 0.22895868 -0.96812546
0.9841273 -0.007489476 -0.4335301 0.86463505 0.23209567 0.60935336 -0.66396105 0.56222296
0.84388435 0.97330534 0.45175916 0.6211197 0.7575303 0.32137302 -0.85007197 -0.2902063
0.8130732 -0.34241527 0.7699551 -0.05656962 0.31088853 -0.064979024 -0.1744926 0.8264751
0.21662976 -0.74483925 0.95923024 0.7043207 0.44113967 -1.1510743 0.60855407 0.40721193
-0.054105923 0.41199094 1.0207092 -0.9669019 -0.7635779 1.2658536 1.0204195 0.9886142
-0.46212518 -0.3076533 -0.6457887 1.2174526 0.70191693 0.50869507 0.93500113 0.62524015
00000000: ca69 a03e 73a1 ecbe 5752 8cbf 8698 923e
00000010: 536c 5e3f d839 443f a06d fb3e cd45 4f3f
00000020: aded 9d3e 3eed 8f3f 186f 8b3f ee64 b93d
00000030: 891c 483e 5cb7 9f3e 2574 6a3e 12d7 77bf
00000040: c4ef 7b3f 476a f5bb a8f7 ddbe b958 5d3f
00000050: 7daa 6d3e 95fe 1b3f 5af9 29bf d8ed 0f3f
00000060: ce08 583f 8a2a 793f fa4c e73e b301 1f3f
00000070: 81ed 413f 018b a43e 519e 59bf ec95 94be
00000080: 9125 503f 0e51 afbe c71b 453f 8cb5 67bd
00000090: c82c 9f3e b913 85bd 30ae 32be df93 533f
000000a0: 31d4 5d3e c9ad 3ebf 1d90 753f 5d4e 343f
000000b0: 0fdd e13e 6756 93bf 33ca 1b3f 157e d03e
000000c0: 2c9e 5dbd 7af0 d23e 99a6 823f e286 77bf
000000d0: d779 43bf 7e07 a23f 1b9d 823f d215 7d3f
000000e0: ac9b ecbe bc84 9dbe 6952 25bf 7dd5 9b3f
000000f0: d4b0 333f d739 023f 3c5c 6f3f bd0f 203f

l2.bias f4 [8]
0.23751968 0.32123783 -0.039266374 0.06696087 0.18557829 0.20476764 0.27436227 0.18164195
00000000: 5c38 733e 4979 a43e c7d5 20bd c822 893d
00000010: 3c08 3e3e 9cae 513e 3679 8c3e 5900 3a3e

l3.weight f4 [7, 8]
0.035257917 -0.09286359 -1.1996733 -1.1820492 -1.4130226 -1.5138886 0.53494686 0.67969865
0.5126112 -0.60313183 -0.938947 -0.74283236 -0.7061328 0.7997291 -1.2738296 0.5827682
0.34504458 -0.47931132 0.6144873 0.438009 -0.16148339 -1.3741126 -1.1175677 0.048967868
-0.6029421 -0.54749805 -0.79731894 -1.4151078 0.55629855 0.7408771 0.55331993 -0.43039685
-1.2514848 0.79982615 -0.66880953 -0.10837992 -0.5375028 -0.9486709 0.7545257 -1.3892058
0.6299731 -1.4922689 0.29295298 -0.6329474 0.16749515 -0.48806062 -0.06457755 0.12202333
-0.9099879 0.32343766 0.24639614 0.6660102 0.23771766 0.49578854 -1.247634 -0.7193056
00000000: 9b6a 103d 442f bebd e58e 99bf 634d 97bf
00000010: eddd b4bf 1ac7 c1bf 47f2 083f bb00 2e3f
00000020: 7d3a 033f d966 1abf d55e 70bf 432a 3ebf
00000030: 1fc5 34bf 0cbb 4c3f d90c a3bf 4c30 153f
00000040: afa9 b03e 4b68 f5be 0a4f 1d3f b742 e03e
00000050: e75b 25be ece2 afbf 750c 8fbf 8892 483d
00000060: 6a5a 1abf d528 0cbf 181d 4cbf 4122 b5bf
00000070: 9569 0e3f 1faa 3d3f 60a6 0d3f fa5c dcbe
00000080: a730 a0bf 68c1 4c3f 1a37 2bbf 4bf6 ddbd
00000090: c999 09bf 19dc 72bf 9928 413f 7fd1 b1bf
000000a0: eb45 213f ab02 bfbf effd 953e d708 22bf
000000b0: d983 2b3e 15e3 f9be 3c41 84bd 5ee7 f93d
000000c0: f8f4 68bf 9f99 a53e 454f 7c3e a57f 2a3f
000000d0: 426c 733e ffd7 fd3e 79b2 9fbf 6924 38bf

l3.bias f4 [7]
0.035554945 0.070401244 -0.2198885 0.121078074 0.19901276 -0.09338464 -0.07393023
00000000: 10a2 113d 872e 903d 732a 61be c8f7 f73d
00000010: 00ca 4b3e 7240 bfbd bc68 97bd
